{"architecture":{"class_name":"Functional","config":{"name":"model","trainable":true,"layers":[{"class_name":"InputLayer","config":{"batch_input_shape":[null,3],"dtype":"float32","sparse":false,"ragged":false,"name":"input_1"},"name":"input_1","inbound_nodes":[]},{"class_name":"Dense","config":{"name":"dense","trainable":true,"dtype":"float32","units":10,"activation":"tanh","use_bias":true,"kernel_initializer":{"class_name":"GlorotNormal","config":{"seed":null},"shared_object_id":1},"bias_initializer":{"class_name":"Zeros","config":{}},"kernel_regularizer":null,"bias_regularizer":null,"activity_regularizer":null,"kernel_constraint":null,"bias_constraint":null},"name":"dense","inbound_nodes":[[["input_1",0,0,{}]]]},{"class_name":"Dense","config":{"name":"dense_1","trainable":true,"dtype":"float32","units":10,"activation":"tanh","use_bias":true,"kernel_initializer":{"class_name":"GlorotNormal","config":{"seed":null},"shared_object_id":1},"bias_initializer":{"class_name":"Zeros","config":{}},"kernel_regularizer":null,"bias_regularizer":null,"activity_regularizer":null,"kernel_constraint":null,"bias_constraint":null},"name":"dense_1","inbound_nodes":[[["dense",0,0,{}]]]},{"class_name":"Dense","config":{"name":"dense_2","trainable":true,"dtype":"float32","units":10,"activation":"tanh","use_bias":true,"kernel_initializer":{"class_name":"GlorotNormal","config":{"seed":null},"shared_object_id":1},"bias_initializer":{"class_name":"Zeros","config":{}},"kernel_regularizer":null,"bias_regularizer":null,"activity_regularizer":null,"kernel_constraint":null,"bias_constraint":null},"name":"dense_2","inbound_nodes":[[["dense_1",0,0,{}]]]},{"class_name":"Dense","config":{"name":"dense_3","trainable":true,"dtype":"float32","units":1,"activation":"linear","use_bias":true,"kernel_initializer":{"class_name":"GlorotNormal","config":{"seed":null},"shared_object_id":1},"bias_initializer":{"class_name":"Zeros","config":{}},"kernel_regularizer":null,"bias_regularizer":null,"activity_regularizer":null,"kernel_constraint":null,"bias_constraint":null},"name":"dense_3","inbound_nodes":[[["dense_2",0,0,{}]]]},{"class_name":"Dense","config":{"name":"dense_4","trainable":true,"dtype":"float32","units":1,"activation":"softplus","use_bias":true,"kernel_initializer":{"class_name":"GlorotNormal","config":{"seed":null},"shared_object_id":1},"bias_initializer":{"class_name":"Zeros","config":{}},"kernel_regularizer":null,"bias_regularizer":null,"activity_regularizer":null,"kernel_constraint":null,"bias_constraint":null},"name":"dense_4","inbound_nodes":[[["dense_2",0,0,{}]]]},{"class_name":"Dense","config":{"name":"dense_5","trainable":true,"dtype":"float32","units":1,"activation":"linear","use_bias":true,"kernel_initializer":{"class_name":"GlorotNormal","config":{"seed":null},"shared_object_id":1},"bias_initializer":{"class_name":"Zeros","config":{}},"kernel_regularizer":null,"bias_regularizer":null,"activity_regularizer":null,"kernel_constraint":null,"bias_constraint":null},"name":"dense_5","inbound_nodes":[[["dense_2",0,0,{}]]]},{"class_name":"Concatenate","config":{"name":"concatenate","trainable":true,"dtype":"float32","axis":-1},"name":"concatenate","inbound_nodes":[[["dense_3",0,0,{}],["dense_4",0,0,{}],["dense_5",0,0,{}]]]}],"input_layers":[["input_1",0,0]],"output_layers":[["concatenate",0,0]]},"keras_version":"2.12.0","backend":"tensorflow"},"image_data_format":"channels_last","input_shapes":[[3]],"output_shapes":[[3]],"tests":[{"inputs":[{"shape":[3],"values":["dP6Cv8GMIz++MwC/"]}],"outputs":[{"shape":[3],"values":["pFIHwKV3XEGxFh7C"]}]}],"trainable_params":{"dense":{"weights":["UYMkv6gC5z8IfnI/BLVkv/XjgT+Wu1k+AiKIPyIT5L+7Ute+dDWoPxvVJT+X2rm+i6yRvwd6Zr9BnRu/AgeCP3hdYr+o7rO7tVJtP2xNgT//IuU+JSgxPuKBEz89ZYQ9+UmZQJZIWr4zlqq9bC1NP7HSID9ZR7BA"],"bias":["ANjNvkF4Xr5MMiy+ol4+PiXg+j550uO+aA3GPo4lUb6kTzW+jMxtvg=="]},"dense_1":{"weights":["…"],"bias":["pbjsvUJQhLvb3pa+gdMdvq+fsr5regA/YgGGv6A5Cz8y/8q+4p6CvA=="]},"dense_2":{"weights":["…"],"bias":["iTt2P/p1Yr/5FWk/qiPBPe/78L1gPMy+V9ZmPwcfFT41R82+JhLNug=="]},"dense_3":{"weights":["qICDv29EuD9myGi/3QsPwKQZ3D7EoOy/qcMNvzouE8DdeY49bpGAvg=="],"bias":["e4tWvw=="]},"dense_4":{"weights":["E96jP1XNVb9URIg/lmBOQFTLYUByiMC+51GOP7UZIMC9AxC/IgePPw=="],"bias":["mLqoPw=="]},"dense_5":{"weights":["rsiCwAx8hEAn2YXARzOowJlQAEG3DQdBPxSMwHOAJL+tcv5AidjxQA=="],"bias":["Srl3wA=="]}},"hash":"0a4bf90beb5b4cc7001034158923c48881923915cb71d35bd73e48f49e952eb2"}