{"architecture":{"class_name":"Functional","config":{"name":"model","trainable":true,"layers":[{"class_name":"InputLayer","config":{"batch_input_shape":[null,3],"dtype":"float32","sparse":false,"ragged":false,"name":"input_1"},"name":"input_1","inbound_nodes":[]},{"class_name":"Dense","config":{"name":"dense","trainable":true,"dtype":"float32","units":10,"activation":"tanh","use_bias":true,"kernel_initializer":{"class_name":"GlorotNormal","config":{"seed":null},"shared_object_id":1},"bias_initializer":{"class_name":"Zeros","config":{}},"kernel_regularizer":null,"bias_regularizer":null,"activity_regularizer":null,"kernel_constraint":null,"bias_constraint":null},"name":"dense","inbound_nodes":[[["input_1",0,0,{}]]]},{"class_name":"Dense","config":{"name":"dense_1","trainable":true,"dtype":"float32","units":10,"activation":"tanh","use_bias":true,"kernel_initializer":{"class_name":"GlorotNormal","config":{"seed":null},"shared_object_id":1},"bias_initializer":{"class_name":"Zeros","config":{}},"kernel_regularizer":null,"bias_regularizer":null,"activity_regularizer":null,"kernel_constraint":null,"bias_constraint":null},"name":"dense_1","inbound_nodes":[[["dense",0,0,{}]]]},{"class_name":"Dense","config":{"name":"dense_2","trainable":true,"dtype":"float32","units":10,"activation":"tanh","use_bias":true,"kernel_initializer":{"class_name":"GlorotNormal","config":{"seed":null},"shared_object_id":1},"bias_initializer":{"class_name":"Zeros","config":{}},"kernel_regularizer":null,"bias_regularizer":null,"activity_regularizer":null,"kernel_constraint":null,"bias_constraint":null},"name":"dense_2","inbound_nodes":[[["dense_1",0,0,{}]]]},{"class_name":"Dense","config":{"name":"dense_3","trainable":true,"dtype":"float32","units":1,"activation":"linear","use_bias":true,"kernel_initializer":{"class_name":"GlorotNormal","config":{"seed":null},"shared_object_id":1},"bias_initializer":{"class_name":"Zeros","config":{}},"kernel_regularizer":null,"bias_regularizer":null,"activity_regularizer":null,"kernel_constraint":null,"bias_constraint":null},"name":"dense_3","inbound_nodes":[[["dense_2",0,0,{}]]]},{"class_name":"Dense","config":{"name":"dense_4","trainable":true,"dtype":"float32","units":1,"activation":"softplus","use_bias":true,"kernel_initializer":{"class_name":"GlorotNormal","config":{"seed":null},"shared_object_id":1},"bias_initializer":{"class_name":"Zeros","config":{}},"kernel_regularizer":null,"bias_regularizer":null,"activity_regularizer":null,"kernel_constraint":null,"bias_constraint":null},"name":"dense_4","inbound_nodes":[[["dense_2",0,0,{}]]]},{"class_name":"Dense","config":{"name":"dense_5","trainable":true,"dtype":"float32","units":1,"activation":"linear","use_bias":true,"kernel_initializer":{"class_name":"GlorotNormal","config":{"seed":null},"shared_object_id":1},"bias_initializer":{"class_name":"Zeros","config":{}},"kernel_regularizer":null,"bias_regularizer":null,"activity_regularizer":null,"kernel_constraint":null,"bias_constraint":null},"name":"dense_5","inbound_nodes":[[["dense_2",0,0,{}]]]},{"class_name":"Concatenate","config":{"name":"concatenate","trainable":true,"dtype":"float32","axis":-1},"name":"concatenate","inbound_nodes":[[["dense_3",0,0,{}],["dense_4",0,0,{}],["dense_5",0,0,{}]]]}],"input_layers":[["input_1",0,0]],"output_layers":[["concatenate",0,0]]},"keras_version":"2.12.0","backend":"tensorflow"},"image_data_format":"channels_last","input_shapes":[[3]],"output_shapes":[[3]],"tests":[{"inputs":[{"shape":[3],"values":["2L0DPSXSrb+sy/a9"]}],"outputs":[{"shape":[3],"values":["TEwGQeD8AEAemHDD"]}]}],"trainable_params":{"dense":{"weights":["qRZ8QGThrz9DJ1jAuHQuP002yb5c45g85Rg1vxqqLzxZ/+m/cfjIv4G2w7+OEz6/O3jDP2nmXL+h1lc/Gg5KvzpsoL6xDSE/8QHHvspiD7/ANQS+uOS/vcK9Bb9pnvY9W6ESv6IFmb3272q+42zdPuEgTT4XkF++"],"bias":["CkAWPxk7xDw8zvq+bhrqvHCVC73y6Ms+aJxePg6BGD7tmV4+DWKmPg=="]},"dense_1":{"weights":["…"],"bias":["cecbvJXgib8mvD+/GKbfvnP7rD/JQKS+ivWZP1RHl77Pgum+Zr20Pg=="]},"dense_2":{"weights":["…"],"bias":["8GdjP9FWIT/RpfC9dtwQwAwVyT6Xshg/+5bpPqcaWj9fvJo/B6j5Pg=="]},"dense_3":{"weights":["LwZIv2KbgL8Clo/AM/4lPkmvAkCzFBLA3vnevgwT7T/c6L6+kLmPwA=="],"bias":["cjlFPg=="]},"dense_4":{"weights":["AzOEwHGMK0FtC6K+FvwmP2rNMkC43oDAbmCpPp5XoT+LUGS/26eoQA=="],"bias":["W5Lfvg=="]},"dense_5":{"weights":["ZqIMwros7cE78ehB0v/kQW4THsInAPXB1T8AwmEuHcKtx+bBHROfwQ=="],"bias":["SDDiwQ=="]}},"hash":"b25293fe20a4a51f7bfdcc64fd8e3dc5dbc9dc3375051422339b59898ad38919"}