{"architecture":{"class_name":"Functional","config":{"name":"model","trainable":true,"layers":[{"class_name":"InputLayer","config":{"batch_input_shape":[null,3],"dtype":"float32","sparse":false,"ragged":false,"name":"input_1"},"name":"input_1","inbound_nodes":[]},{"class_name":"Dense","config":{"name":"dense","trainable":true,"dtype":"float32","units":10,"activation":"tanh","use_bias":true,"kernel_initializer":{"class_name":"GlorotNormal","config":{"seed":null},"shared_object_id":1},"bias_initializer":{"class_name":"Zeros","config":{}},"kernel_regularizer":null,"bias_regularizer":null,"activity_regularizer":null,"kernel_constraint":null,"bias_constraint":null},"name":"dense","inbound_nodes":[[["input_1",0,0,{}]]]},{"class_name":"Dense","config":{"name":"dense_1","trainable":true,"dtype":"float32","units":10,"activation":"tanh","use_bias":true,"kernel_initializer":{"class_name":"GlorotNormal","config":{"seed":null},"shared_object_id":1},"bias_initializer":{"class_name":"Zeros","config":{}},"kernel_regularizer":null,"bias_regularizer":null,"activity_regularizer":null,"kernel_constraint":null,"bias_constraint":null},"name":"dense_1","inbound_nodes":[[["dense",0,0,{}]]]},{"class_name":"Dense","config":{"name":"dense_2","trainable":true,"dtype":"float32","units":10,"activation":"tanh","use_bias":true,"kernel_initializer":{"class_name":"GlorotNormal","config":{"seed":null},"shared_object_id":1},"bias_initializer":{"class_name":"Zeros","config":{}},"kernel_regularizer":null,"bias_regularizer":null,"activity_regularizer":null,"kernel_constraint":null,"bias_constraint":null},"name":"dense_2","inbound_nodes":[[["dense_1",0,0,{}]]]},{"class_name":"Dense","config":{"name":"dense_3","trainable":true,"dtype":"float32","units":1,"activation":"linear","use_bias":true,"kernel_initializer":{"class_name":"GlorotNormal","config":{"seed":null},"shared_object_id":1},"bias_initializer":{"class_name":"Zeros","config":{}},"kernel_regularizer":null,"bias_regularizer":null,"activity_regularizer":null,"kernel_constraint":null,"bias_constraint":null},"name":"dense_3","inbound_nodes":[[["dense_2",0,0,{}]]]},{"class_name":"Dense","config":{"name":"dense_4","trainable":true,"dtype":"float32","units":1,"activation":"softplus","use_bias":true,"kernel_initializer":{"class_name":"GlorotNormal","config":{"seed":null},"shared_object_id":1},"bias_initializer":{"class_name":"Zeros","config":{}},"kernel_regularizer":null,"bias_regularizer":null,"activity_regularizer":null,"kernel_constraint":null,"bias_constraint":null},"name":"dense_4","inbound_nodes":[[["dense_2",0,0,{}]]]},{"class_name":"Dense","config":{"name":"dense_5","trainable":true,"dtype":"float32","units":1,"activation":"linear","use_bias":true,"kernel_initializer":{"class_name":"GlorotNormal","config":{"seed":null},"shared_object_id":1},"bias_initializer":{"class_name":"Zeros","config":{}},"kernel_regularizer":null,"bias_regularizer":null,"activity_regularizer":null,"kernel_constraint":null,"bias_constraint":null},"name":"dense_5","inbound_nodes":[[["dense_2",0,0,{}]]]},{"class_name":"Concatenate","config":{"name":"concatenate","trainable":true,"dtype":"float32","axis":-1},"name":"concatenate","inbound_nodes":[[["dense_3",0,0,{}],["dense_4",0,0,{}],["dense_5",0,0,{}]]]}],"input_layers":[["input_1",0,0]],"output_layers":[["concatenate",0,0]]},"keras_version":"2.12.0","backend":"tensorflow"},"image_data_format":"channels_last","input_shapes":[[3]],"output_shapes":[[3]],"tests":[{"inputs":[{"shape":[3],"values":["SSDUv2wUAsBC+dc+"]}],"outputs":[{"shape":[3],"values":["Xp//P5p7hz8sD9u/"]}]}],"trainable_params":{"dense":{"weights":["gSktv815Fr8o4NY/XOGmPs8czr3CDSG/NCLVvgf9f78giEA/Fg7AvgqJnb9r8ac9vnHHvVJSTr/wzpM/PzQCQD2EWz+s0zu/mOq3PRELmL4w200+lY5eQJ38BL5Om9K+gFi7vmNF4D4DGQG/sb4Pv1MjZL++mcO+"],"bias":["r57WPoD35T4BPYU9DBRTP92dxr1qqFW+7SSSPNbi+j2GcQC9KYDOvg=="]},"dense_1":{"weights":["…"],"bias":["KCCzPWfFLr5sK6M+HSzeveOdd77qfRc+0GIEvMaexL3wyJ0+RfhzvA=="]},"dense_2":{"weights":["…"],"bias":["4HefPS06ED+4wE27PsgdvAHx1T4DRR2/8w20v+YdVb/OhN29BoFOPg=="]},"dense_3":{"weights":["48sZP+cYoD760qk/QGr2vrFZ9z5+Oju/vU64vuHKsb4y1AM/kchOPw=="],"bias":["DVQFPg=="]},"dense_4":{"weights":["Nodpv7terr35+Iy/TSpXwHuhoj/iCHK/BFDovwWQhr+Rsp+/rnTRvw=="],"bias":["2V+WPw=="]},"dense_5":{"weights":["/8KIvi1btb5clBc+GxB9vcKDZj7YuY0+OyTQPsDd57xPhp49PdRKvg=="],"bias":["YXIAvw=="]}},"hash":"1426a6fa3c389c47e8bb781c44dd876e8d30c61750426e73a209b8ac0b80c8f6"}