{"architecture":{"class_name":"Functional","config":{"name":"model_2","layers":[{"class_name":"InputLayer","config":{"batch_input_shape":[null,3],"dtype":"float32","sparse":false,"ragged":false,"name":"input_layer"},"name":"input_layer","inbound_nodes":[]},{"class_name":"Dense","config":{"name":"dense","trainable":true,"dtype":"float32","units":10,"activation":"gelu","use_bias":true,"kernel_initializer":{"class_name":"LecunNormal","config":{"seed":7}},"bias_initializer":{"class_name":"Zeros","config":{}},"kernel_regularizer":null,"bias_regularizer":null,"activity_regularizer":null,"kernel_constraint":null,"bias_constraint":null},"name":"dense","inbound_nodes":[[["input_layer",0,0,{}]]]},{"class_name":"Dense","config":{"name":"dense_1","trainable":true,"dtype":"float32","units":10,"activation":"gelu","use_bias":true,"kernel_initializer":{"class_name":"LecunNormal","config":{"seed":7}},"bias_initializer":{"class_name":"Zeros","config":{}},"kernel_regularizer":null,"bias_regularizer":null,"activity_regularizer":null,"kernel_constraint":null,"bias_constraint":null},"name":"dense_1","inbound_nodes":[[["dense",0,0,{}]]]},{"class_name":"Dense","config":{"name":"dense_2","trainable":true,"dtype":"float32","units":10,"activation":"gelu","use_bias":true,"kernel_initializer":{"class_name":"LecunNormal","config":{"seed":7}},"bias_initializer":{"class_name":"Zeros","config":{}},"kernel_regularizer":null,"bias_regularizer":null,"activity_regularizer":null,"kernel_constraint":null,"bias_constraint":null},"name":"dense_2","inbound_nodes":[[["dense_1",0,0,{}]]]},{"class_name":"Dense","config":{"name":"f01","trainable":true,"dtype":"float32","units":1,"activation":"linear","use_bias":true,"kernel_initializer":{"class_name":"LecunNormal","config":{"seed":7}},"bias_initializer":{"class_name":"Zeros","config":{}},"kernel_regularizer":null,"bias_regularizer":null,"activity_regularizer":null,"kernel_constraint":null,"bias_constraint":null},"name":"f01","inbound_nodes":[[["dense_2",0,0,{}]]]},{"class_name":"Dense","config":{"name":"g1","trainable":true,"dtype":"float32","units":1,"activation":"softplus","use_bias":true,"kernel_initializer":{"class_name":"LecunNormal","config":{"seed":7}},"bias_initializer":{"class_name":"Zeros","config":{}},"kernel_regularizer":null,"bias_regularizer":null,"activity_regularizer":null,"kernel_constraint":null,"bias_constraint":null},"name":"g1","inbound_nodes":[[["dense_2",0,0,{}]]]},{"class_name":"Dense","config":{"name":"f02","trainable":true,"dtype":"float32","units":1,"activation":"linear","use_bias":true,"kernel_initializer":{"class_name":"LecunNormal","config":{"seed":7}},"bias_initializer":{"class_name":"Zeros","config":{}},"kernel_regularizer":null,"bias_regularizer":null,"activity_regularizer":null,"kernel_constraint":null,"bias_constraint":null},"name":"f02","inbound_nodes":[[["dense_2",0,0,{}]]]},{"class_name":"Concatenate","config":{"name":"gn","trainable":true,"dtype":"float32","axis":-1},"name":"gn","inbound_nodes":[[["f01",0,0,{}],["g1",0,0,{}],["f02",0,0,{}]]]}],"input_layers":[["input_layer",0,0]],"output_layers":[["gn",0,0]]},"keras_version":"2.10.0","backend":"tensorflow"},"image_data_format":"channels_last","input_shapes":[[3]],"output_shapes":[[3]],"tests":[{"inputs":[{"shape":[3],"values":["DZWdP7Wknj+kzbg7"]}],"outputs":[{"shape":[3],"values":["j5jvP8Qqv0CiiKC/"]}]}],"trainable_params":{"dense":{"weights":["jJYKwJ+wp7+Nnh7ABGAEwFs3HL/DI/0+I0IQPzZ9zb52OTu/IVUwP2e4kj6TXDg/8cRaP/+8pr6f6rC+XOkWPfTB/jxX/DZAvc4wP9Nk8j7yctO/45f6vxohoL2m83u/1EsYP+nrFz9yGaQ9SbJEPvBNz72bLkY+"],"bias":["pMNOv0Afgz58cEk+Ezgpv4y4vj6Fx809AL8ZPxw0+b5rp/29OTunPg=="]},"dense_1":{"weights":["…"],"bias":["m3W9PsTLpjyWuRU+2Lu0PpWVcj4gDFc+7dZ8vppN/z1q33++Ckg9Pw=="]},"dense_2":{"weights":["…"],"bias":["BqUZPuv+Vz56T6M+Rz0YPiN8Lz7slKg+aPDWvrzYvr7EOsY+UpkqPw=="]},"f01":{"weights":["rN3Dv1T0YT9ehIS/E/+bvyaiPr7lBUc/YMRQv06dr7/vW9E+0DVPPg=="],"bias":["g8kfPg=="]},"g1":{"weights":["ieZ6wH753r+IiAjAlPAnQO019z+ueae/urUGwOl7qr895UQ/T6fAPw=="],"bias":["vjqRPw=="]},"f02":{"weights":["p3YaP3te6j7V4QC/DHiJPlpCtL5bATW+iHO6P3PxtT4IMQS/iHuwPQ=="],"bias":["k8d5vg=="]}},"hash":"7228b6c0fd461771939d12a9fbe8859cfbdc2eb434bfe3664ec02c2741964fa5"}